/home/yvonne/.local/lib/python3.8/site-packages/kornia/feature/lightglue.py:44: FutureWarning: `torch.cuda.amp.custom_fwd(args...)` is deprecated. Please use `torch.amp.custom_fwd(args..., device_type='cuda')` instead.
  @torch.cuda.amp.custom_fwd(cast_inputs=torch.float32)
Building and initializing stl10 parameters
Sequential(
  (0): Conv2d(3, 32, kernel_size=(3, 3), stride=(1, 1), padding=(1, 1))
  (1): BatchNorm2d(32, eps=1e-05, momentum=0.1, affine=False, track_running_stats=True)
  (2): ReLU()
  (3): MaxPool2d(kernel_size=2, stride=2, padding=0, dilation=1, ceil_mode=False)
  (4): Conv2d(32, 64, kernel_size=(3, 3), stride=(1, 1), padding=(1, 1))
  (5): BatchNorm2d(64, eps=1e-05, momentum=0.1, affine=False, track_running_stats=True)
  (6): ReLU()
  (7): MaxPool2d(kernel_size=2, stride=2, padding=0, dilation=1, ceil_mode=False)
  (8): Conv2d(64, 128, kernel_size=(3, 3), stride=(1, 1), padding=(1, 1))
  (9): BatchNorm2d(128, eps=1e-05, momentum=0.1, affine=False, track_running_stats=True)
  (10): ReLU()
  (11): MaxPool2d(kernel_size=2, stride=2, padding=0, dilation=1, ceil_mode=False)
  (12): Conv2d(128, 128, kernel_size=(3, 3), stride=(1, 1), padding=(1, 1))
  (13): BatchNorm2d(128, eps=1e-05, momentum=0.1, affine=False, track_running_stats=True)
  (14): ReLU()
  (15): MaxPool2d(kernel_size=2, stride=2, padding=0, dilation=1, ceil_mode=False)
  (16): Conv2d(128, 256, kernel_size=(3, 3), stride=(1, 1))
  (17): BatchNorm2d(256, eps=1e-05, momentum=0.1, affine=False, track_running_stats=True)
  (18): ReLU()
  (19): Conv2d(256, 256, kernel_size=(3, 3), stride=(1, 1))
  (20): BatchNorm2d(256, eps=1e-05, momentum=0.1, affine=False, track_running_stats=True)
  (21): ReLU()
  (22): MaxPool2d(kernel_size=2, stride=2, padding=0, dilation=1, ceil_mode=False)
)
Sequential(
  (0): Linear(in_features=256, out_features=10, bias=True)
)
--------------------------------------------------
Skript wird mit den folgenden Argumenten gestartet:
  Mode: Test
  Project's path: /home/yvonne/Documents/CNN_compact/
  Compression: Yes
  Compression guided by: Feature extraction
  Encryption: Yes
  Encryption guided by: Feature extraction
  Shared Guidance: Yes
--------------------------------------------------
…
